…
           serial_batches: False                         
                   suffix:                               
         update_html_freq: 1000                          
                  verbose: False                         
----------------- End -------------------
dataset [UnalignedDataset] was created
The number of training images = 19672
=========================
----------------------------------------------------------------
        Layer (type)               Output Shape         Param #
================================================================
            Conv2d-1         [-1, 64, 128, 128]           3,136
         LeakyReLU-2         [-1, 64, 128, 128]               0
            Conv2d-3          [-1, 128, 64, 64]         131,200
    InstanceNorm2d-4          [-1, 128, 64, 64]               0
         LeakyReLU-5          [-1, 128, 64, 64]               0
            Conv2d-6          [-1, 256, 32, 32]         524,544
    InstanceNorm2d-7          [-1, 256, 32, 32]               0
         LeakyReLU-8          [-1, 256, 32, 32]               0
            Conv2d-9          [-1, 512, 16, 16]       2,097,664
   InstanceNorm2d-10          [-1, 512, 16, 16]               0
        LeakyReLU-11          [-1, 512, 16, 16]               0
           Conv2d-12            [-1, 512, 8, 8]       4,194,816
   InstanceNorm2d-13            [-1, 512, 8, 8]               0
        LeakyReLU-14            [-1, 512, 8, 8]               0
           Conv2d-15            [-1, 512, 4, 4]       4,194,816
   InstanceNorm2d-16            [-1, 512, 4, 4]               0
        LeakyReLU-17            [-1, 512, 4, 4]               0
           Conv2d-18            [-1, 512, 2, 2]       4,194,816
             ReLU-19            [-1, 512, 2, 2]               0
  ConvTranspose2d-20            [-1, 512, 4, 4]       4,194,816
   InstanceNorm2d-21            [-1, 512, 4, 4]               0
UnetSkipConnectionBlock-22           [-1, 1024, 4, 4]               0
             ReLU-23           [-1, 1024, 4, 4]               0
  ConvTranspose2d-24            [-1, 512, 8, 8]       8,389,120
   InstanceNorm2d-25            [-1, 512, 8, 8]               0
UnetSkipConnectionBlock-26           [-1, 1024, 8, 8]               0
             ReLU-27           [-1, 1024, 8, 8]               0
  ConvTranspose2d-28          [-1, 512, 16, 16]       8,389,120
   InstanceNorm2d-29          [-1, 512, 16, 16]               0
UnetSkipConnectionBlock-30         [-1, 1024, 16, 16]               0
             ReLU-31         [-1, 1024, 16, 16]               0
  ConvTranspose2d-32          [-1, 256, 32, 32]       4,194,560
   InstanceNorm2d-33          [-1, 256, 32, 32]               0
UnetSkipConnectionBlock-34          [-1, 512, 32, 32]               0
             ReLU-35          [-1, 512, 32, 32]               0
  ConvTranspose2d-36          [-1, 128, 64, 64]       1,048,704
   InstanceNorm2d-37          [-1, 128, 64, 64]               0
UnetSkipConnectionBlock-38          [-1, 256, 64, 64]               0
             ReLU-39          [-1, 256, 64, 64]               0
  ConvTranspose2d-40         [-1, 64, 128, 128]         262,208
   InstanceNorm2d-41         [-1, 64, 128, 128]               0
UnetSkipConnectionBlock-42        [-1, 128, 128, 128]               0
             ReLU-43        [-1, 128, 128, 128]               0
  ConvTranspose2d-44          [-1, 3, 256, 256]           6,147
             Tanh-45          [-1, 3, 256, 256]               0
UnetSkipConnectionBlock-46          [-1, 3, 256, 256]               0
================================================================
Total params: 41,825,667
Trainable params: 41,825,667
Non-trainable params: 0
----------------------------------------------------------------
Input size (MB): 0.75
Forward/backward pass size (MB): 134.34
Params size (MB): 159.55
Estimated Total Size (MB): 294.65
----------------------------------------------------------------
=========================
