…
           serial_batches: False                         
                   suffix:                               
         update_html_freq: 1000                          
                  verbose: False                         
----------------- End -------------------
dataset [UnalignedDataset] was created
The number of training images = 19672
=========================
----------------------------------------------------------------
        Layer (type)               Output Shape         Param #
================================================================
   ReflectionPad2d-1          [-1, 3, 262, 262]               0
            Conv2d-2         [-1, 64, 256, 256]           9,472
    InstanceNorm2d-3         [-1, 64, 256, 256]               0
              ReLU-4         [-1, 64, 256, 256]               0
            Conv2d-5        [-1, 128, 128, 128]          73,856
    InstanceNorm2d-6        [-1, 128, 128, 128]               0
              ReLU-7        [-1, 128, 128, 128]               0
            Conv2d-8          [-1, 256, 64, 64]         295,168
    InstanceNorm2d-9          [-1, 256, 64, 64]               0
             ReLU-10          [-1, 256, 64, 64]               0
  ReflectionPad2d-11          [-1, 256, 66, 66]               0
           Conv2d-12          [-1, 256, 64, 64]         590,080
   InstanceNorm2d-13          [-1, 256, 64, 64]               0
             ReLU-14          [-1, 256, 64, 64]               0
  ReflectionPad2d-15          [-1, 256, 66, 66]               0
           Conv2d-16          [-1, 256, 64, 64]         590,080
   InstanceNorm2d-17          [-1, 256, 64, 64]               0
      ResnetBlock-18          [-1, 256, 64, 64]               0
  ReflectionPad2d-19          [-1, 256, 66, 66]               0
           Conv2d-20          [-1, 256, 64, 64]         590,080
   InstanceNorm2d-21          [-1, 256, 64, 64]               0
             ReLU-22          [-1, 256, 64, 64]               0
  ReflectionPad2d-23          [-1, 256, 66, 66]               0
           Conv2d-24          [-1, 256, 64, 64]         590,080
   InstanceNorm2d-25          [-1, 256, 64, 64]               0
      ResnetBlock-26          [-1, 256, 64, 64]               0
  ReflectionPad2d-27          [-1, 256, 66, 66]               0
           Conv2d-28          [-1, 256, 64, 64]         590,080
   InstanceNorm2d-29          [-1, 256, 64, 64]               0
             ReLU-30          [-1, 256, 64, 64]               0
  ReflectionPad2d-31          [-1, 256, 66, 66]               0
           Conv2d-32          [-1, 256, 64, 64]         590,080
   InstanceNorm2d-33          [-1, 256, 64, 64]               0
      ResnetBlock-34          [-1, 256, 64, 64]               0
  ReflectionPad2d-35          [-1, 256, 66, 66]               0
           Conv2d-36          [-1, 256, 64, 64]         590,080
   InstanceNorm2d-37          [-1, 256, 64, 64]               0
             ReLU-38          [-1, 256, 64, 64]               0
  ReflectionPad2d-39          [-1, 256, 66, 66]               0
           Conv2d-40          [-1, 256, 64, 64]         590,080
   InstanceNorm2d-41          [-1, 256, 64, 64]               0
      ResnetBlock-42          [-1, 256, 64, 64]               0
  ReflectionPad2d-43          [-1, 256, 66, 66]               0
           Conv2d-44          [-1, 256, 64, 64]         590,080
   InstanceNorm2d-45          [-1, 256, 64, 64]               0
             ReLU-46          [-1, 256, 64, 64]               0
  ReflectionPad2d-47          [-1, 256, 66, 66]               0
           Conv2d-48          [-1, 256, 64, 64]         590,080
   InstanceNorm2d-49          [-1, 256, 64, 64]               0
      ResnetBlock-50          [-1, 256, 64, 64]               0
  ReflectionPad2d-51          [-1, 256, 66, 66]               0
           Conv2d-52          [-1, 256, 64, 64]         590,080
   InstanceNorm2d-53          [-1, 256, 64, 64]               0
             ReLU-54          [-1, 256, 64, 64]               0
  ReflectionPad2d-55          [-1, 256, 66, 66]               0
           Conv2d-56          [-1, 256, 64, 64]         590,080
   InstanceNorm2d-57          [-1, 256, 64, 64]               0
      ResnetBlock-58          [-1, 256, 64, 64]               0
  ReflectionPad2d-59          [-1, 256, 66, 66]               0
           Conv2d-60          [-1, 256, 64, 64]         590,080
   InstanceNorm2d-61          [-1, 256, 64, 64]               0
             ReLU-62          [-1, 256, 64, 64]               0
  ReflectionPad2d-63          [-1, 256, 66, 66]               0
           Conv2d-64          [-1, 256, 64, 64]         590,080
   InstanceNorm2d-65          [-1, 256, 64, 64]               0
      ResnetBlock-66          [-1, 256, 64, 64]               0
  ReflectionPad2d-67          [-1, 256, 66, 66]               0
           Conv2d-68          [-1, 256, 64, 64]         590,080
   InstanceNorm2d-69          [-1, 256, 64, 64]               0
             ReLU-70          [-1, 256, 64, 64]               0
  ReflectionPad2d-71          [-1, 256, 66, 66]               0
           Conv2d-72          [-1, 256, 64, 64]         590,080
   InstanceNorm2d-73          [-1, 256, 64, 64]               0
      ResnetBlock-74          [-1, 256, 64, 64]               0
  ReflectionPad2d-75          [-1, 256, 66, 66]               0
           Conv2d-76          [-1, 256, 64, 64]         590,080
   InstanceNorm2d-77          [-1, 256, 64, 64]               0
             ReLU-78          [-1, 256, 64, 64]               0
  ReflectionPad2d-79          [-1, 256, 66, 66]               0
           Conv2d-80          [-1, 256, 64, 64]         590,080
   InstanceNorm2d-81          [-1, 256, 64, 64]               0
      ResnetBlock-82          [-1, 256, 64, 64]               0
  ConvTranspose2d-83        [-1, 128, 128, 128]         295,040
   InstanceNorm2d-84        [-1, 128, 128, 128]               0
             ReLU-85        [-1, 128, 128, 128]               0
  ConvTranspose2d-86         [-1, 64, 256, 256]          73,792
   InstanceNorm2d-87         [-1, 64, 256, 256]               0
             ReLU-88         [-1, 64, 256, 256]               0
  ReflectionPad2d-89         [-1, 64, 262, 262]               0
           Conv2d-90          [-1, 3, 256, 256]           9,411
             Tanh-91          [-1, 3, 256, 256]               0
================================================================
Total params: 11,378,179
Trainable params: 11,378,179
Non-trainable params: 0
----------------------------------------------------------------
Input size (MB): 0.75
Forward/backward pass size (MB): 935.23
Params size (MB): 43.40
Estimated Total Size (MB): 979.38
----------------------------------------------------------------
=========================
…
